CHF/models/tmc2007_500/model7_1.pt (torch, 47937 bytes, 2 tensors)

weight f4 [22, 522]
00000000: 6afb 30be e5c7 61be 936e 32be d36a 89bc
00000010: 1d1d 02be 5bd2 2b3e 86f1 fabd 50a6 93be
00000020: 40cd 0fbe eb64 96be 2718 1bbe 4044 61be
00000030: e5b8 2dbe fefc 8fbd 21ca 9e3d e9de e6bd
00000040: ec1b cebd 60e8 d23d 8830 863c 6b85 81be
00000050: 085d 64be 0092 64be dc9c 9abe 362d 7cbe
00000060: e3e2 98be d254 70be 9650 b33e fdd0 07be
00000070: 3cb7 b7be 21d2 2ebe ffc1 94be bfa0 7abe
00000080: 8ab5 ffbc 3fd4 93be 8b82 3c3d be95 87be
00000090: 735b 83be 738b 1abe fd5e 86be 4ed0 f8bd
000000a0: 6018 33be 7c1c 9dbe 12f0 94bd 27ae ebbd
000000b0: 369f 8c3d 33c8 a4be 9e01 18be da53 c1bd
000000c0: 6c74 10be 8852 b2bd 0657 28be e5cc 2dbe
000000d0: 326f cbbd 4595 33be 71f8 59be a64d e4be
000000e0: a394 66be 0334 9cbe e72b 34be 3227 21be
000000f0: d81f a3bc eab0 6dbe a6fb 7bbd 2ec4 83be
00000100: c1fa 55be fdd9 67be e9d7 15be 3e79 9bbe
00000110: d913 7bbc 3f2a 8cbe 07a6 26be e624 19be
00000120: 1fda 80be b5dc 03be 6c4d 0f3e d7c2 a4bd
00000130: 6042 5dbe 26d9 67be 85c6 76bd 3fda aebc
00000140: 5906 37be 3434 38be 5855 8bbe 8a8e 2bbe
00000150: 6f6a 8cbe 893c 6c3e f616 fdbd e62c 86be
00000160: ff85 8bbe 81d5 7dbe d4e3 7bbe 1ba4 88be
00000170: c631 99be c854 f8bd fc22 3cbe 34ff a1be
00000180: 4969 29be f4d0 30be 7caa 2fbd 24df a6be
00000190: 516a 26be e39e c1be e4d0 c8bd 46fb 0ebe
000001a0: b281 95be cc7d 06be f606 47be c1a0 32be
000001b0: e16a 81be 076b 0b3e a180 37be 5eef 95be
000001c0: 3043 71be 943e 08bd 4888 7abe a6a3 5c3b
000001d0: cb06 85be 5db6 fe3e 67f3 22be d777 efbd
000001e0: 3f82 91be a625 93bd e67a 83be cd62 99be
000001f0: cafb 55be 5ec3 56be 5c3d 16be 6728 28be
00000200: 7f82 ca3e d699 9e3e 2352 a2bd 1514 05bd
00000210: 10f9 6cbe 44e9 2cbe fa08 a7be 1c61 37be
00000220: b421 b23e ad00 cdbd 1b29 8dbe 3cd2 76be
00000230: e1b9 82be 8744 0fbe e9ca c2bb 6a62 7abe
00000240: 2783 51be 12a9 73be 1d77 e6bd b812 72be
00000250: e003 82be c709 40be d14b a33e 5759 aebc
00000260: fe5a 01be 92e5 d1bc f45b 7cbe 51f5 66be
00000270: cdda 88be 9264 a4be 6657 35be 1978 4cbc
00000280: 0040 01be 6b72 1dbe 73e4 43be c2f7 46be
00000290: b39a 78bd 7085 a2be 07c4 80bd 5a98 18be
000002a0: 9bd5 76be 59a7 a3be 5bc6 80be cb61 76be
000002b0: 50ea abbe 75c0 16be 048f 4bbe 15b9 86be
000002c0: 4972 7cbe 1f27 9fbe e89d 9fbe 8a91 7cbe
000002d0: eacb a2be 4246 1ebe d1b5 29be 241e 35be
000002e0: 1c4d 703d f8fb 77be c727 fabc 2ea4 3cbe
000002f0: 5e11 e6bd dc67 63bd ab07 36bd 0fe4 39be
00000300: 9561 903d 6a9b 3dbe 85fe 12be 8802 3dbe
00000310: 3ea4 50be 2652 63be e612 03be 829d 9abe
00000320: 2304 aabe 4ce4 a9bd 1029 45be 92b5 e43d
00000330: 2bcf c6bd f828 1dbe d147 d9bd 5669 1bbe
00000340: aed7 b5bd acbd 20be ee17 32be 3273 2cbe
00000350: d56e 24be 29ec 8ebe 57db 64bd 23ea 3abd
00000360: 0a35 6dbe 0d80 26be 3260 c0bd 7649 a5be
00000370: 8f82 93be 8367 6abe 97e3 e6bd 2ee3 22be
00000380: 3105 37be b169 d0bd 0ea9 1abe bbbc 4abe
00000390: be80 4fbe 7a56 7fbd 7dfb 0bbe 78b1 b7bd
000003a0: e512 04be cf45 76bd 98a6 de3e 3423 3d3e
000003b0: a845 853e d288 6cbe 5a11 40be 897b 85be
000003c0: 1c17 95be 6a24 a7be d707 06be 6036 b53e
000003d0: 5b11 cbbd 4655 02be 4a42 b43d ee6c 803e
000003e0: 884f febd ff08 a4bd d985 88be 7f20 80be
000003f0: 6601 a9be 4b11 7a3d 7d33 bdbd 0d70 8cbd
-0.17283407 -0.2204891 -0.17424993 -0.01677457 -0.12706418 0.16779463 -0.12253098 -0.28837824
-0.1404314 -0.2937387 -0.15145932 -0.21998692 -0.16965063 -0.07030676 0.07753397 -0.112729855
-0.100639194 0.10298228 0.016380563 -0.25297102 -0.22301114 -0.2232132 -0.301978 -0.24626622
-0.298606 -0.23469856 0.3502242 -0.13263316 -0.35881984 -0.17072345 -0.29054257 -0.24475382
-0.031214494 -0.28872868 0.046022933 -0.26481432 -0.25655708 -0.15092258 -0.26244345 -0.12149106
-0.17489767 -0.30685794 -0.07272352 -0.11507826 0.068663046 -0.3218399 -0.14844367 -0.094398215
-0.14106911 -0.08707148 -0.16439447 -0.16972692 -0.09933318 -0.1753741 -0.21286179 -0.4459049
-0.22517638 -0.30508432 -0.17594872 -0.15737608 -0.019912645 -0.23212019 -0.061519288 -0.2573561
-0.20896436 -0.2264175 -0.14633144 -0.30365938 -0.015324556 -0.2737598 -0.16274272 -0.14955482
-0.25166413 -0.12877162 0.13994378 -0.08044975 -0.21607351 -0.2264143 -0.060247917 -0.021344302
-0.17873515 -0.17988664 -0.2721355 -0.16753593 -0.27424952 0.23069967 -0.12357895 -0.2620613
-0.27250668 -0.24788477 -0.24598628 -0.26687703 -0.29920787 -0.12125546 -0.1837272 -0.31640017
-0.1654407 -0.1726721 -0.042887196 -0.32592118 -0.16251494 -0.37816533 -0.09805468 -0.1396304
-0.29200512 -0.13133925 -0.19436249 -0.17444135 -0.25276855 0.13615046 -0.17920162 -0.29284185
-0.23560786 -0.033262804 -0.2446605 0.0033666878 -0.25981745 0.49748507 -0.15913163 -0.116927795
-0.28419682 -0.07184915 -0.25679702 -0.29958192 -0.20896831 -0.20972964 -0.14671844 -0.16421662
0.39552686 0.30976743 -0.079258226 -0.032489855 -0.23141885 -0.16885859 -0.32624036 -0.17908138
0.34791338 -0.100098945 -0.27570423 -0.24103636 -0.2553244 -0.13990985 -0.005944599 -0.24451604
-0.20460187 -0.23794964 -0.11253188 -0.23639953 -0.2539358 -0.1875373 0.3189378 -0.021282835
-0.12632367 -0.025622163 -0.24644452 -0.22554518 -0.26729432 -0.3210798 -0.17709121 -0.012479805
-0.1262207 -0.15375678 -0.19130115 -0.1943045 -0.060694408 -0.3174243 -0.06287389 -0.14901868
-0.24104922 -0.31963614 -0.25151333 -0.24060743 -0.33577204 -0.14721854 -0.19878775 -0.2631308
-0.24652971 -0.31084535 -0.3117516 -0.24664894 -0.317962 -0.15456489 -0.16573264 -0.17687279
0.058667287 -0.24217212 -0.030536545 -0.18422005 -0.11233781 -0.05551897 -0.044440906 -0.18153404
0.07049862 -0.18516317 -0.14354904 -0.18457997 -0.20375153 -0.22199306 -0.12800178 -0.30198294
-0.3320628 -0.08295497 -0.19253945 0.11167444 -0.09707483 -0.1534766 -0.10609401 -0.15176901
-0.08879028 -0.15697354 -0.17391941 -0.16840819 -0.16057904 -0.2791455 -0.05587324 -0.045633446
-0.23164764 -0.16259785 -0.09393348 -0.3228261 -0.28810546 -0.22891049 -0.11273878 -0.15906975
-0.17873074 -0.10176409 -0.15103552 -0.19798557 -0.20263955 -0.06233833 -0.13670154 -0.08969396
-0.12897833 -0.06012517 0.43486476 0.1847046 0.26029706 -0.23099068 -0.18756619 -0.26070812
-0.29119194 -0.3264497 -0.13088928 0.35393047 -0.0991542 -0.12727842 0.08801706 0.25083107
-0.12417513 -0.08009528 -0.26664618 -0.25024793 -0.3300888 0.061051648 -0.09238336 -0.068573095

bias f4 [22]
00000000: 329f a0be 1ca8 dc3d 0eb9 a1be 5d2f a8be
00000010: daed c2be 3bc5 d4be de0c d3be 2d8e debe
00000020: 60a7 a5be 2bc8 adbe 5cd8 a8be a7df cdbe
00000030: b3d9 d2be e0d4 a4be ed4c b7be 794f cebe
00000040: edb5 b8be f73d b8be 09e9 66be 8a6a c8be
00000050: 7245 a2be 3902 b8be
-0.31371456 0.10774252 -0.31586498 -0.32848635 -0.3807209 -0.41556725 -0.41220754 -0.43467847
-0.3235426 -0.3394178 -0.3297757 -0.40209696 -0.41181716 -0.3219366 -0.35800877 -0.40295008
-0.36076298 -0.35984775 -0.22549833 -0.39143783 -0.31693608 -0.35939196
