CHF/Arts.pt (torch, 94593 bytes, 1 tensors)

weight f4 [1, 23161]
0	0xbed97652	-0.42473084
1	0x3e62e0a0	0.22156
2	0x3cacc8ee	0.021091904
3	0xbcf0079a	-0.0293005
4	0x3e004272	0.12525347
5	0x3b1f1d24	0.0024278844
6	0xbe87e444	-0.2654134
7	0x3e08b454	0.1335004
8	0xbed1a073	-0.40942726
9	0xbd9fe299	-0.07806892
10	0x3dfe0dee	0.124050006
11	0x3e637f63	0.22216563
12	0xbdecd98d	-0.11564932
13	0xbb0a0535	-0.0021060233
14	0xbe3e0551	-0.18556716
15	0x3d81ec83	0.06343939
16	0x3e4ec638	0.20192802
17	0xbc45460e	-0.012040628
18	0xbe1dab77	-0.1539744
19	0xbe23d794	-0.16000205
20	0x3c54acbb	0.012980635
21	0xbc82fbdb	-0.015989235
22	0xbd35b30d	-0.04436021
23	0x3e58b702	0.21163562
24	0x3d8d0ece	0.068875894
25	0x3e8000cc	0.25000608
26	0xbe38a0c3	-0.18030076
27	0xbe1ca053	-0.15295534
28	0xbcb2b505	-0.021814832
29	0xbd3807fe	-0.044929497
30	0xbeb9e45f	-0.36307046
31	0xbe2e8947	-0.17044555
32	0xbe2b74c6	-0.16743764
33	0xbe5a081a	-0.21292153
34	0xbc039e5e	-0.008033363
35	0xbe99bc13	-0.30026302
36	0x3dbf8e79	0.093533464
37	0xbe71d58f	-0.23616622
38	0xbda3bde8	-0.07995206
39	0x3d330aed	0.04371159
40	0xbdf9b3fe	-0.12192534
41	0xbe295ae3	-0.16538577
42	0x3db3836e	0.087653026
43	0xbd846863	-0.06465223
44	0x3e2aa666	0.16665038
45	0xbe3442e0	-0.17603636
46	0xbebad758	-0.3649242
47	0xbe2ab231	-0.16669537
48	0x3d62c090	0.055359423
49	0xbe1c2034	-0.1524666
50	0xbc219c1c	-0.0098638795
51	0xbe60d859	-0.2195753
52	0x3dac18c0	0.08403158
53	0x3d54de41	0.05196977
54	0x3e02cae0	0.12772703
55	0xbe307665	-0.17232664
56	0x3dc4eb73	0.09615221
57	0x3e558494	0.20851356
58	0xbd7d5414	-0.06184776
59	0xbdfc892c	-0.12330851
60	0x3e6bce5b	0.23027937
61	0xbd95c561	-0.07313038
62	0x3e2a2f6f	0.16619657
63	0x3ea47b02	0.32125098
64	0xbcbf6c31	-0.02336702
65	0x3d9c3aa1	0.0762837
66	0xbb065719	-0.0020498692
67	0x3dfb6462	0.12275006
68	0xbaeee637	-0.0018226568
69	0x3d420971	0.047372285
70	0x3e81e6c1	0.25371364
71	0xbefa8140	-0.48926735
72	0x3e9b31ae	0.3031134
73	0x3d3e1c8f	0.046413954
74	0x3cab541b	0.020914128
75	0x3e91d51a	0.28482896
76	0xbdd8cd72	-0.105860606
77	0x3e17199c	0.14755863
78	0x3ef78fe8	0.4835198
79	0x3dbb50b8	0.09146255
80	0x3c0224aa	0.007943312
81	0x3b3e0f85	0.002900095
82	0x3e3ef5f9	0.18648519
83	0x3e310cd6	0.17290053
84	0x3e888315	0.26662508
85	0x3e433deb	0.19066589
86	0x3e34384b	0.17599599
87	0xbe08bad5	-0.13352521
88	0x3eba176a	0.3634599
89	0x3db45609	0.088054724
90	0xbd96ecc6	-0.0736938
91	0xbd4553a9	-0.048175488
92	0x3ecda15e	0.40162176
93	0xbe8b3bfb	-0.271942
94	0xbe0b8663	-0.13625483
95	0x3e9af42a	0.30264407
96	0xbe4f6940	-0.20254993
97	0x3e7eb6ff	0.24874495
98	0xbe2cb494	-0.1686576
99	0x3e9239f1	0.2855983
100	0x3bb55a7a	0.0055344673
101	0x3e18eeb1	0.14934804
102	0x3e37592d	0.17905112
103	0xbe881398	-0.2657745
104	0xbcfa94ca	-0.030588526
105	0xbe2d8746	-0.16946134
106	0x3e02a70f	0.1275904
107	0xbebd6171	-0.36988404
108	0x3ea74bee	0.32675117
109	0xbd39bb0f	-0.04534441
110	0x3e29ddbb	0.1658849
111	0x3d0f92b2	0.03505201
112	0x3e5a6766	0.21328506
113	0xbe456bb1	-0.19279362
114	0x3ec569b7	0.38557217
115	0xbe393d3f	-0.1808977
116	0x3eff49f3	0.49861106
117	0x3d0c8a8c	0.034311816
118	0x3d849fd3	0.064757966
119	0x3e30c256	0.17261633
120	0x3b091d2e	0.0020921933
121	0x3e1ff169	0.15619434
122	0x3e8e659e	0.27811903
123	0x3ebdec79	0.37094477
124	0x3ef9642d	0.4870924
125	0x3dea5b6e	0.1144322
126	0xbdcf2ccd	-0.10115967
127	0xbe69fc33	-0.22850113
128	0xbe5b72c1	-0.21430494
129	0xbe6be098	-0.23034894
130	0xbde087b2	-0.10963382
131	0xbdf74c28	-0.120750725
132	0xbea8d365	-0.3297378
133	0x3e832328	0.2561276
134	0x3db0bad3	0.08629384
135	0xbc15ea2d	-0.00915007
136	0xbd9f617b	-0.07782265
137	0x3d9d9893	0.07695117
138	0xbc80d997	-0.015728755
139	0x3e029b53	0.12754564
140	0x3df4a7d1	0.11946071
141	0x3ee48e53	0.44639835
142	0x3cc2826e	0.023743834
143	0xbd61ae4d	-0.055097867
144	0x3ece0411	0.40237477
145	0xbaaf1e4e	-0.0013360472
146	0x3df285e4	0.11841944
147	0x3ea18109	0.3154376
148	0xbea3a1b5	-0.3195931
149	0xbdb5ece0	-0.08883071
150	0x3dbc3eb0	0.09191644
151	0x3e541011	0.20709254
152	0x3eb64feb	0.35607848
153	0xbdc0e2ef	-0.09418284
154	0x3e70cf56	0.23516592
155	0xbe2ae07f	-0.16687201
156	0x3dc000f5	0.093751825
157	0x3f281581	0.6565781
158	0xbea8fdd5	-0.33006158
159	0x3ea43080	0.32068253
160	0x3e40e350	0.18836713
161	0x3c4947ab	0.012285153
162	0x3e0b9a5a	0.13633099
163	0x3df4c376	0.11951344
164	0xbca3e56b	-0.020006856
165	0x3e79fa32	0.24411848
166	0x3ecdf025	0.40222278
167	0x3e833f93	0.2563444
168	0xbe43c7e2	-0.19119218
169	0x3e6cf438	0.23140037
170	0xbcb5474e	-0.022128727
171	0xbe19e64c	-0.15029258
172	0xbde3df6a	-0.11126597
173	0x3e77d68c	0.24202937
174	0x3ec407c8	0.38287187
175	0x3e09c0f6	0.13452515
176	0xbeac7dae	-0.33689636
177	0x3e3108bc	0.17288488
178	0x3da88a6c	0.08229527
179	0x3e1a3bb7	0.15061842
180	0x3dac4550	0.08411658
181	0xbbc9d05c	-0.0061588716
182	0x3e2e215d	0.17004915
183	0xbdcc04e8	-0.09961873
184	0x3bcadedc	0.0061911177
185	0x3e00b2af	0.12568162
186	0xbe72514b	-0.23663823
187	0x3d1d0243	0.038332235
188	0xbd75ed6e	-0.060040884
189	0x3f17629e	0.5913485
190	0x3df367c4	0.11885026
191	0x3e0f6084	0.14001662
192	0xbe288617	-0.16457401
193	0x3d79f724	0.061026707
194	0x3e71bf39	0.23608102
195	0xbe192c35	-0.1495827
196	0xbdbbd015	-0.09170548
197	0x3ed337d2	0.41253525
198	0x3c83d45d	0.016092474
199	0x3b71624f	0.0036832278
200	0x3de6bd0a	0.11266525
201	0x3e628762	0.22121957
202	0x3d758ecf	0.059950646
203	0x3e132a73	0.14371662
204	0xbc0bb3e8	-0.00852678
205	0xbdd64362	-0.10462071
206	0xbe3dd62d	-0.18538733
207	0x3b9ee04f	0.004848517
208	0x3e583f66	0.21117935
209	0xbc9d304e	-0.019188073
210	0x3f14be61	0.58102995
211	0x3e01a909	0.12662138
212	0x3ca2e1d7	0.01988308
213	0x3e944c6d	0.28964558
214	0x3d874a5f	0.06605982
215	0x3d35ab1b	0.044352632
216	0xbe83f313	-0.25771388
217	0x3e9c5391	0.30532506
218	0x3f3561fa	0.70852625
219	0x3d047c06	0.03234484
220	0xbe116d2a	-0.14201799
221	0xbd9027b0	-0.0703882
222	0x3e893df2	0.26805073
223	0x3ef85970	0.48505735
224	0x3eea7406	0.45791644
225	0x3e892b95	0.26791063
226	0x3ddbf68b	0.10740384
227	0xbde3efd0	-0.11129725
228	0xbe2d3056	-0.1691297
229	0x3d770042	0.06030298
230	0xbf1632ae	-0.5867108
231	0x3e9ef0bc	0.3104304
232	0xbe01c857	-0.1267408
233	0x3c220c01	0.009890557
234	0xbd7883c3	-0.060672533
235	0x3edd3c2c	0.4320997
236	0x3deab3fe	0.11460112
237	0x3d950191	0.072756894
238	0x3ef9c9f1	0.48786882
239	0x3f19c07d	0.6005934
240	0x3e4ddf8f	0.20104812
241	0x3ce1d891	0.027569087
242	0x3c6cd72f	0.014455601
243	0x3f35d0d5	0.7102178
244	0x3daca230	0.08429372
245	0xbddc24fe	-0.10749243
246	0xbe2121b5	-0.15735514
247	0x3d6f0613	0.058355402
248	0x3ddb2c15	0.10701767
249	0xbe41f079	-0.1893939
250	0xbe0feb2b	-0.14054553
251	0xbc9d75e3	-0.019221252
252	0x3ea06d4f	0.31333396
253	0x3dfa5e70	0.12225044
254	0x3d0e3760	0.03472078
255	0x3eac6bf8	0.33676124
