CHF/tmc2007_500.pt (torch, 47937 bytes, 2 tensors)

weight f4 [22, 522]
000000 ca dd 16 be fd 42 1f be 79 db e9 bd b9 79 00 3d
       -0.14733043 -0.15552898 -0.11418814 0.031366084
000010 71 16 e0 bd ac dc 17 3e f7 98 36 be 69 61 e6 bd
       -0.1094178 0.14830273 -0.17831789 -0.11249048
000020 d0 36 2c be e8 6a 42 be 5d 5a 63 be 01 c3 fb bd
       -0.16817784 -0.18986094 -0.2220244 -0.122930534
000030 3b 3c ed bd 37 5f 87 bd 52 f5 50 3d 54 b1 ab bd
       -0.11583754 -0.06609958 0.051015206 -0.08383432
000040 fc 3e 78 bd cc 87 c0 3d 74 f2 c6 bb 72 67 9f be
       -0.06060694 0.09400901 -0.006071383 -0.3113361
000050 fb f6 56 be 60 78 43 be e9 30 b5 be 0b 2e 63 be
       -0.20992653 -0.19088888 -0.35388878 -0.22185533
000060 0c 7f 84 be 27 ca 85 be 94 dd 98 3e 20 fa d4 bd
       -0.2587818 -0.26130792 0.2985655 -0.1039927
000070 08 08 71 be 7f 6d 16 be 6f 7a 93 be 6c e3 86 be
       -0.2353822 -0.14690207 -0.28804347 -0.26345384
000080 02 8c f7 3a 57 6f 7c be 46 0a e5 3c 17 9b a4 be
       0.001888633 -0.24651848 0.027959 -0.32149574
000090 8f 2c 76 be 7e 13 3b be 76 fa 79 be 28 9a bb bd
       -0.24040435 -0.18269154 -0.2441195 -0.09160262
0000a0 36 43 f3 bd 06 c3 96 be f8 b9 ac bc 26 0e b6 bd
       -0.11878054 -0.29445666 -0.02108477 -0.08889417
0000b0 9f 49 10 3e 37 27 8b be a8 23 04 be a4 29 12 bd
       0.14090584 -0.27178356 -0.12904227 -0.035684243
0000c0 95 86 fc bd 8f b7 a8 bd e0 8e 2b be 74 62 c2 bd
       -0.12330357 -0.08238136 -0.16753721 -0.09491435
0000d0 72 88 52 be 7a 03 ad bd 1f 27 0f be 2f 38 90 be
       -0.20559862 -0.08447929 -0.13979767 -0.28167865
0000e0 b6 00 2c be d6 92 32 be 82 df 4b be c6 2c 21 be
       -0.16797146 -0.17438826 -0.1990948 -0.15739736
0000f0 33 bb 7b bb 4a 0c 56 be bc da c1 bd 60 71 81 be
       -0.003841114 -0.20903125 -0.094655484 -0.2528181
000100 14 ce 20 be 4d 51 be bd 91 e5 ed bd 8a 57 81 be
       -0.15703613 -0.09292851 -0.11616052 -0.252621
000110 99 c6 89 bc bd 8d 2f be 11 9f 21 be dc ca 1d be
       -0.016818332 -0.17143913 -0.15783335 -0.15409416
000120 e2 02 81 be 42 00 02 be 99 45 43 3e 3a 18 dc bd
       -0.25197512 -0.12695411 0.19069518 -0.10746808
000130 37 5e 5d be 52 e8 33 be 1e 8b 75 ba df ea f8 ba
       -0.21617971 -0.17569092 -0.00093667384 -0.0018990895
000140 e1 ad 26 be ae d9 31 be 9a 48 76 be 97 2a 31 be
       -0.16277267 -0.17368194 -0.24051133 -0.17301403
000150 16 13 1b be 92 c2 50 3e ab 37 cd bd bc 88 68 be
       -0.15144 0.20386723 -0.100203834 -0.2270841
000160 84 bb 75 be 6b 02 37 be 50 4a 3f be 43 0e 87 be
       -0.23997313 -0.17872016 -0.18680692 -0.26378068
000170 50 da 7e be e7 57 7f bd 46 dc 28 be bc 26 79 be
       -0.24887967 -0.06233969 -0.16490278 -0.24331182
000180 e4 72 30 be a2 9e 55 be 4f 8b f8 bd d3 6d 60 be
       -0.17231327 -0.20861295 -0.12135946 -0.21916895
000190 ee f4 41 be 7b 59 96 be 06 12 01 bd 05 e9 d7 bd
       -0.1894109 -0.29365143 -0.03151133 -0.10542492
0001a0 7e 4c 5d be da 7b 0b be 75 ed 4c be b1 66 de bd
       -0.2161121 -0.13621464 -0.20012458 -0.108594306
0001b0 02 cc 5f be 84 1e 5c 3d c3 15 2e be 61 99 70 be
       -0.21855167 0.05374004 -0.17000489 -0.2349601
0001c0 d2 99 24 be f9 65 78 bd 56 e1 5e be f0 2e c5 bc
       -0.16074303 -0.060644124 -0.21765646 -0.024070233
0001d0 08 5e 9c be 04 5b f8 3e 69 1b 5d bd ec eb fa bd
       -0.3054049 0.4850694 -0.05398122 -0.1225203
0001e0 51 af 99 be 10 1f 9e bd 97 b8 50 be 42 43 a8 be
       -0.30016568 -0.077207685 -0.20382915 -0.32863814
0001f0 63 90 ea bd 68 0c 78 be 94 5f 84 bd e7 b1 2c be
       -0.11453321 -0.24223483 -0.064635426 -0.1686474
000200 51 8e 9e 3e 74 f8 81 3e 0f a6 8f bd aa 65 0d bd
       0.30967954 0.25384867 -0.07014095 -0.034520783
000210 e9 cf 44 be 24 60 29 be 62 a8 98 be 72 7b 52 be
       -0.19219936 -0.16540581 -0.29815966 -0.20554903
000220 7e 0c bf 3e 44 2a 83 bd 8d c1 2f be 0c 7b 89 be
       0.37314218 -0.06404546 -0.17163678 -0.2685169
000230 40 87 f2 bd d2 2c 2c be 51 36 38 ba 38 eb 02 be
       -0.11842203 -0.16813973 -0.0007027137 -0.12785041
000240 ab ea 3f be 10 f2 98 be 89 0a 1c bd dd ef 21 be
       -0.18741862 -0.2987218 -0.038095985 -0.15814157
000250 d9 82 13 be c4 4b 2a be 67 44 8b 3e 9a 69 74 bd
       -0.14405383 -0.16630465 0.27200624 -0.059671022
000260 70 dc 6f bd 02 de 83 3d bc 18 8b be 0f e6 36 be
       -0.058559835 0.06438829 -0.27167308 -0.17861198
000270 94 cc 40 be ac 83 84 be fb a3 58 be 66 d6 29 bd
       -0.1882804 -0.25881708 -0.21156304 -0.041464232
000280 6b 4b 00 be 04 4a 4f be ce 87 00 be 14 ca 43 be
       -0.1252877 -0.20243078 -0.12551805 -0.19120055
000290 55 de da bd 07 e9 86 be 0e dd b6 ba 97 42 b3 bd
       -0.10686938 -0.2634966 -0.0013951377 -0.087529354
0002a0 2c 8c 3e be 1d 0f a1 be 7b 5a bf bd 0b 22 92 bd
       -0.18608159 -0.31456843 -0.0934343 -0.071353994
0002b0 42 67 33 be 3e c1 02 be e1 d4 0e be f0 69 f9 bd
       -0.17519858 -0.12769029 -0.13948394 -0.12178409
0002c0 2d eb 8b be 97 47 8f be 99 f0 9c be 48 78 85 be
       -0.27327862 -0.27984306 -0.3065231 -0.2606833
0002d0 91 bb 93 be 0b e3 19 be d6 88 de bd 6d f7 d0 bd
       -0.2885404 -0.15028016 -0.10865943 -0.10203443
0002e0 fa cc 9d 3c 84 aa 90 be e5 14 6c bd 0d 5a 2b be
       0.01926278 -0.28255093 -0.057637114 -0.1673357
0002f0 bc 63 d2 bd cb b9 87 bd 72 11 ce bb fc 14 23 be
       -0.10272929 -0.06627234 -0.0062887007 -0.15925974
000300 2a 71 90 3d bc 8c 6c be a6 84 be bd b6 d3 23 be
       0.07052834 -0.23100561 -0.093026444 -0.1599873
000310 c0 26 6e be df 9f 3c be 54 da 09 be ad f3 80 be
       -0.2325697 -0.18420361 -0.13462192 -0.2518591
000320 71 bf 85 be 59 c5 58 bd d3 e4 5d be 0a 3b c0 3c
       -0.2612262 -0.05292258 -0.21669321 0.023465652
000330 1f ec fc bd ad ed 2b be e4 16 db bd c9 5e 25 be
       -0.12349724 -0.16789885 -0.106977254 -0.16149439
000340 c0 bd 0d be 59 8c d7 bd c4 93 cd bd 84 b1 f7 bd
       -0.13841915 -0.10524816 -0.1003795 -0.12094405
000350 e0 32 cf bd b5 35 85 be 8f 6c 97 bd b6 f2 23 3d
       -0.101171255 -0.26017538 -0.07393753 0.04002639
000360 3a 10 8c be 70 bc 2a be 5c 42 b8 bd 5d e5 96 be
       -0.2735613 -0.16673446 -0.08997032 -0.29471865
000370 0b a2 6a be b0 c5 44 be b5 46 e3 bd d7 dc e2 bd
       -0.22913377 -0.19216037 -0.11097471 -0.11077278
000380 44 c1 05 be fe 0d b5 bd 31 18 ac bd 2e 01 3d be
       -0.13062006 -0.088405594 -0.08403052 -0.18457481
000390 6a 85 c5 bd 64 71 88 bc 67 b0 18 be ee 24 3c bd
       -0.09644587 -0.016655631 -0.14911042 -0.045933656
0003a0 36 a9 1e be a8 99 c4 bc 4a 1e b6 3e 39 9e 68 3e
       -0.15494236 -0.02399905 0.35569984 0.22716607
0003b0 64 42 82 3e 2c 8a 6c be 75 9d 0b be 93 68 59 be
       0.25441277 -0.23099583 -0.13634284 -0.21231298
0003c0 a5 84 8d be cc b6 80 be 84 f0 8f bd 8b a4 c9 3e
       -0.27640262 -0.25139463 -0.070282966 0.3938335
0003d0 1b 6d d4 bd 6d 6b 17 be 94 19 8b 3c b2 c5 a4 3e
       -0.10372373 -0.14787073 0.01697997 0.3218208
0003e0 39 f6 f1 bd 6c 32 28 bd 6c 13 83 be 65 34 15 be
       -0.11814541 -0.04106371 -0.25600755 -0.14570768
0003f0 75 20 7f be b1 ec 77 3d 32 13 a3 bc b0 b6 c5 bd
       -0.24914725 0.06052846 -0.019906614 -0.096539855

bias f4 [22]
000000 d5 c1 ba be 6e 90 2b 3e 74 eb be be b3 a7 a6 be
       -0.36476007 0.16754314 -0.3728901 -0.3254982
000010 42 98 c1 be 42 20 cf be bd 54 c0 be 29 24 da be
       -0.37811476 -0.40454298 -0.3756465 -0.42605713
000020 4c b0 a1 be e2 97 d9 be 04 c6 b6 be 96 4e b7 be
       -0.31579816 -0.4249869 -0.3569795 -0.35802144
000030 32 c1 dc be 82 11 c4 be 87 b1 af be 6c 50 bd be
       -0.43116146 -0.38294607 -0.3431513 -0.3697542
000040 d9 28 a8 be cd 57 a4 be 4b 05 4e be 0f 6e cb be
       -0.32843664 -0.32098237 -0.20119207 -0.39732406
000050 df b7 ba be b1 f0 bd be
       -0.36468408 -0.37097695
